…
2020-12-22 12:36:31.831344: W tensorflow/core/framework/cpu_allocator_impl.cc:80] Allocation of 411041792 exceeds 10% of free system memory.
Epoch 2/100
4/4 [==============================] - 2s 465ms/step - loss: 0.2125
Epoch 3/100
4/4 [==============================] - 2s 451ms/step - loss: 0.1579
Epoch 4/100
4/4 [==============================] - 2s 433ms/step - loss: 0.1126
...

Model: "sequential"
_________________________________________________________________
Layer (type)                 Output Shape              Param #
=================================================================
random_flip (RandomFlip)     (None, 224, 224, 1)       0
_________________________________________________________________
random_crop (RandomCrop)     (None, 100, 100, 1)       0
_________________________________________________________________
resizing (Resizing)          (None, 224, 224, 1)       0
_________________________________________________________________
random_rotation (RandomRotat (None, 224, 224, 1)       0
_________________________________________________________________
input_1 (InputLayer)         multiple                  0
_________________________________________________________________
conv2d (Conv2D)              (None, 224, 224, 1)       5
_________________________________________________________________
conv2d_1 (Conv2D)            (None, 112, 112, 32)      160
_________________________________________________________________
conv2d_2 (Conv2D)            (None, 56, 56, 64)        8256
_________________________________________________________________
conv2d_3 (Conv2D)            (None, 28, 28, 128)       32896
_________________________________________________________________
conv2d_transpose (Conv2DTran (None, 56, 56, 128)       65664
_________________________________________________________________
conv2d_transpose_1 (Conv2DTr (None, 112, 112, 64)      32832
_________________________________________________________________
conv2d_transpose_2 (Conv2DTr (None, 224, 224, 2)       514
=================================================================
Total params: 140,327
Trainable params: 140,327
Non-trainable params: 0
_________________________________________________________________
None

